{
    "format": "layers-model",
    "generatedBy": "keras v2.9.0",
    "convertedBy": "TensorFlow.js Converter v3.19.0",
    "modelTopology": {
        "keras_version": "2.9.0",
        "backend": "tensorflow",
        "model_config": {
            "class_name": "Sequential",
            "config": {
                "name": "sequential_19",
                "layers": [
                    {
                        "class_name": "InputLayer",
                        "config": {
                            "batch_input_shape": [
                                null,
                                28,
                                28,
                                1
                            ],
                            "dtype": "float32",
                            "sparse": false,
                            "ragged": false,
                            "name": "sequential_18_input"
                        }
                    },
                    {
                        "class_name": "Conv2D",
                        "config": {
                            "name": "conv2d_36",
                            "trainable": true,
                            "batch_input_shape": [
                                null,
                                28,
                                28,
                                1
                            ],
                            "dtype": "float32",
                            "filters": 32,
                            "kernel_size": [
                                3,
                                3
                            ],
                            "strides": [
                                1,
                                1
                            ],
                            "padding": "valid",
                            "data_format": "channels_last",
                            "dilation_rate": [
                                1,
                                1
                            ],
                            "groups": 1,
                            "activation": "relu",
                            "use_bias": true,
                            "kernel_initializer": {
                                "class_name": "GlorotUniform",
                                "config": {
                                    "seed": null
                                }
                            },
                            "bias_initializer": {
                                "class_name": "Zeros",
                                "config": {}
                            },
                            "kernel_regularizer": null,
                            "bias_regularizer": null,
                            "activity_regularizer": null,
                            "kernel_constraint": null,
                            "bias_constraint": null
                        }
                    },
                    {
                        "class_name": "Conv2D",
                        "config": {
                            "name": "conv2d_37",
                            "trainable": true,
                            "dtype": "float32",
                            "filters": 64,
                            "kernel_size": [
                                3,
                                3
                            ],
                            "strides": [
                                1,
                                1
                            ],
                            "padding": "valid",
                            "data_format": "channels_last",
                            "dilation_rate": [
                                1,
                                1
                            ],
                            "groups": 1,
                            "activation": "relu",
                            "use_bias": true,
                            "kernel_initializer": {
                                "class_name": "GlorotUniform",
                                "config": {
                                    "seed": null
                                }
                            },
                            "bias_initializer": {
                                "class_name": "Zeros",
                                "config": {}
                            },
                            "kernel_regularizer": null,
                            "bias_regularizer": null,
                            "activity_regularizer": null,
                            "kernel_constraint": null,
                            "bias_constraint": null
                        }
                    },
                    {
                        "class_name": "MaxPooling2D",
                        "config": {
                            "name": "max_pooling2d_17",
                            "trainable": true,
                            "dtype": "float32",
                            "pool_size": [
                                2,
                                2
                            ],
                            "padding": "valid",
                            "strides": [
                                2,
                                2
                            ],
                            "data_format": "channels_last"
                        }
                    },
                    {
                        "class_name": "Conv2D",
                        "config": {
                            "name": "conv2d_38",
                            "trainable": true,
                            "dtype": "float32",
                            "filters": 128,
                            "kernel_size": [
                                3,
                                3
                            ],
                            "strides": [
                                1,
                                1
                            ],
                            "padding": "valid",
                            "data_format": "channels_last",
                            "dilation_rate": [
                                1,
                                1
                            ],
                            "groups": 1,
                            "activation": "relu",
                            "use_bias": true,
                            "kernel_initializer": {
                                "class_name": "GlorotUniform",
                                "config": {
                                    "seed": null
                                }
                            },
                            "bias_initializer": {
                                "class_name": "Zeros",
                                "config": {}
                            },
                            "kernel_regularizer": null,
                            "bias_regularizer": null,
                            "activity_regularizer": null,
                            "kernel_constraint": null,
                            "bias_constraint": null
                        }
                    },
                    {
                        "class_name": "MaxPooling2D",
                        "config": {
                            "name": "max_pooling2d_18",
                            "trainable": true,
                            "dtype": "float32",
                            "pool_size": [
                                2,
                                2
                            ],
                            "padding": "valid",
                            "strides": [
                                2,
                                2
                            ],
                            "data_format": "channels_last"
                        }
                    },
                    {
                        "class_name": "Conv2D",
                        "config": {
                            "name": "conv2d_39",
                            "trainable": true,
                            "dtype": "float32",
                            "filters": 128,
                            "kernel_size": [
                                3,
                                3
                            ],
                            "strides": [
                                1,
                                1
                            ],
                            "padding": "valid",
                            "data_format": "channels_last",
                            "dilation_rate": [
                                1,
                                1
                            ],
                            "groups": 1,
                            "activation": "relu",
                            "use_bias": true,
                            "kernel_initializer": {
                                "class_name": "GlorotUniform",
                                "config": {
                                    "seed": null
                                }
                            },
                            "bias_initializer": {
                                "class_name": "Zeros",
                                "config": {}
                            },
                            "kernel_regularizer": null,
                            "bias_regularizer": null,
                            "activity_regularizer": null,
                            "kernel_constraint": null,
                            "bias_constraint": null
                        }
                    },
                    {
                        "class_name": "MaxPooling2D",
                        "config": {
                            "name": "max_pooling2d_19",
                            "trainable": true,
                            "dtype": "float32",
                            "pool_size": [
                                2,
                                2
                            ],
                            "padding": "valid",
                            "strides": [
                                2,
                                2
                            ],
                            "data_format": "channels_last"
                        }
                    },
                    {
                        "class_name": "Dropout",
                        "config": {
                            "name": "dropout_11",
                            "trainable": true,
                            "dtype": "float32",
                            "rate": 0.5,
                            "noise_shape": null,
                            "seed": null
                        }
                    },
                    {
                        "class_name": "Flatten",
                        "config": {
                            "name": "flatten_11",
                            "trainable": true,
                            "dtype": "float32",
                            "data_format": "channels_last"
                        }
                    },
                    {
                        "class_name": "Dense",
                        "config": {
                            "name": "dense_44",
                            "trainable": true,
                            "dtype": "float32",
                            "units": 256,
                            "activation": "linear",
                            "use_bias": true,
                            "kernel_initializer": {
                                "class_name": "GlorotUniform",
                                "config": {
                                    "seed": null
                                }
                            },
                            "bias_initializer": {
                                "class_name": "Zeros",
                                "config": {}
                            },
                            "kernel_regularizer": null,
                            "bias_regularizer": null,
                            "activity_regularizer": null,
                            "kernel_constraint": null,
                            "bias_constraint": null
                        }
                    },
                    {
                        "class_name": "Dense",
                        "config": {
                            "name": "dense_45",
                            "trainable": true,
                            "dtype": "float32",
                            "units": 256,
                            "activation": "linear",
                            "use_bias": true,
                            "kernel_initializer": {
                                "class_name": "GlorotUniform",
                                "config": {
                                    "seed": null
                                }
                            },
                            "bias_initializer": {
                                "class_name": "Zeros",
                                "config": {}
                            },
                            "kernel_regularizer": null,
                            "bias_regularizer": null,
                            "activity_regularizer": null,
                            "kernel_constraint": null,
                            "bias_constraint": null
                        }
                    },
                    {
                        "class_name": "Dense",
                        "config": {
                            "name": "dense_46",
                            "trainable": true,
                            "dtype": "float32",
                            "units": 256,
                            "activation": "linear",
                            "use_bias": true,
                            "kernel_initializer": {
                                "class_name": "GlorotUniform",
                                "config": {
                                    "seed": null
                                }
                            },
                            "bias_initializer": {
                                "class_name": "Zeros",
                                "config": {}
                            },
                            "kernel_regularizer": null,
                            "bias_regularizer": null,
                            "activity_regularizer": null,
                            "kernel_constraint": null,
                            "bias_constraint": null
                        }
                    },
                    {
                        "class_name": "Dense",
                        "config": {
                            "name": "dense_47",
                            "trainable": true,
                            "dtype": "float32",
                            "units": 10,
                            "activation": "softmax",
                            "use_bias": true,
                            "kernel_initializer": {
                                "class_name": "GlorotUniform",
                                "config": {
                                    "seed": null
                                }
                            },
                            "bias_initializer": {
                                "class_name": "Zeros",
                                "config": {}
                            },
                            "kernel_regularizer": null,
                            "bias_regularizer": null,
                            "activity_regularizer": null,
                            "kernel_constraint": null,
                            "bias_constraint": null
                        }
                    }
                ]
            }
        },
        "training_config": {
            "loss": {
                "class_name": "SparseCategoricalCrossentropy",
                "config": {
                    "reduction": "auto",
                    "name": "sparse_categorical_crossentropy",
                    "from_logits": false
                }
            },
            "metrics": [
                [
                    {
                        "class_name": "SparseCategoricalAccuracy",
                        "config": {
                            "name": "sparse_categorical_accuracy",
                            "dtype": "float32"
                        }
                    }
                ]
            ],
            "weighted_metrics": null,
            "loss_weights": null,
            "optimizer_config": {
                "class_name": "Adam",
                "config": {
                    "name": "Adam",
                    "learning_rate": 0.0010000000474974513,
                    "decay": 0.0,
                    "beta_1": 0.8999999761581421,
                    "beta_2": 0.9990000128746033,
                    "epsilon": 1e-07,
                    "amsgrad": false
                }
            }
        }
    },
    "weightsManifest": [
        {
            "paths": [
                "group1-shard1of1.bin"
            ],
            "weights": [
                {
                    "name": "conv2d_36/kernel",
                    "shape": [
                        3,
                        3,
                        1,
                        32
                    ],
                    "dtype": "float32"
                },
                {
                    "name": "conv2d_36/bias",
                    "shape": [
                        32
                    ],
                    "dtype": "float32"
                },
                {
                    "name": "conv2d_37/kernel",
                    "shape": [
                        3,
                        3,
                        32,
                        64
                    ],
                    "dtype": "float32"
                },
                {
                    "name": "conv2d_37/bias",
                    "shape": [
                        64
                    ],
                    "dtype": "float32"
                },
                {
                    "name": "conv2d_38/kernel",
                    "shape": [
                        3,
                        3,
                        64,
                        128
                    ],
                    "dtype": "float32"
                },
                {
                    "name": "conv2d_38/bias",
                    "shape": [
                        128
                    ],
                    "dtype": "float32"
                },
                {
                    "name": "conv2d_39/kernel",
                    "shape": [
                        3,
                        3,
                        128,
                        128
                    ],
                    "dtype": "float32"
                },
                {
                    "name": "conv2d_39/bias",
                    "shape": [
                        128
                    ],
                    "dtype": "float32"
                },
                {
                    "name": "dense_44/kernel",
                    "shape": [
                        128,
                        256
                    ],
                    "dtype": "float32"
                },
                {
                    "name": "dense_44/bias",
                    "shape": [
                        256
                    ],
                    "dtype": "float32"
                },
                {
                    "name": "dense_45/kernel",
                    "shape": [
                        256,
                        256
                    ],
                    "dtype": "float32"
                },
                {
                    "name": "dense_45/bias",
                    "shape": [
                        256
                    ],
                    "dtype": "float32"
                },
                {
                    "name": "dense_46/kernel",
                    "shape": [
                        256,
                        256
                    ],
                    "dtype": "float32"
                },
                {
                    "name": "dense_46/bias",
                    "shape": [
                        256
                    ],
                    "dtype": "float32"
                },
                {
                    "name": "dense_47/kernel",
                    "shape": [
                        256,
                        10
                    ],
                    "dtype": "float32"
                },
                {
                    "name": "dense_47/bias",
                    "shape": [
                        10
                    ],
                    "dtype": "float32"
                }
            ]
        }
    ]
}